data/weight_matrix/model.npz (npz, 30562 bytes, 2 tensors)

arr_0 f8 [57, 65]
00000000: 536b 5819 b100 ebbf f5f3 6c75 9158 1bc0
00000010: 43ff 77e2 12d3 2ac0 435c 7e93 8579 3440
00000020: fbdc df10 e015 3540 0690 d337 ba03 3540
00000030: afdb 7bd6 efc2 3440 62e8 069b 3396 3440
00000040: d208 834f 944d 1a40 16aa fbaa a1b1 c53f
00000050: aaca f80c 83f9 edbf a377 f2a2 8463 de3f
00000060: 7154 05b0 3113 f9bf 39b7 35f6 b07c dabf
00000070: f6bc f118 28e4 0340 6468 f4fa 9f1c ce3f
00000080: dbbb 5e36 0f2c eb3f 32c5 e7fe 4448 f63f
00000090: 1102 66be b05f e4bf 0cd4 8eee 606b e4bf
000000a0: 750b aa7b 810d f83f bf34 f83b 73b0 0d40
000000b0: 645f cb08 2616 d1bf 033b a757 2e8b f1bf
000000c0: 1916 e461 817c dcbf 05b6 e219 f763 e2bf
000000d0: abc5 0bcf 44f0 e63f 955d e280 3bed fabf
000000e0: 5e1c 97c1 5852 fabf d583 eb61 29bf 10c0
000000f0: 92b7 9100 6c75 fc3f 6322 35ad 1400 fa3f
00000100: aebb d9db 93e3 e63f 4192 1b32 7995 ee3f
00000110: a586 8f6b e876 ecbf 0745 1ea6 3583 03c0
00000120: 38af c275 635b e7bf 8bdd 2244 bb10 d5bf
00000130: 7ebc d9a2 6f9c 13c0 903d 84d7 9ebb eabf
00000140: b23e 19d8 f6c4 f6bf ccf4 7e02 b544 c73f
00000150: 06c3 081b 6994 d93f 5f95 03a8 0ff9 f0bf
00000160: 7397 d402 b570 e7bf 9351 03cd dead 1d40
00000170: 3fb3 a64f 3857 23c0 27fe 47fd 68f9 18c0
00000180: 19c5 f50d 6ea5 1dc0 45d7 c425 ea31 20c0
00000190: 4452 6385 870b c63f 610f d931 c9fe d6bf
000001a0: d600 222b febc c03f 2270 1407 451f eebf
000001b0: 35d9 4456 2b05 f0bf 74fe dfc8 cec7 dcbf
000001c0: dab2 debe 031b e3bf 9b6b 22e5 d0e7 ecbf
000001d0: b41b b597 f5df fabf 8b34 5a19 0126 f9bf
000001e0: c274 88e9 68eb 09c0 f408 3c4b 6ddd f63f
000001f0: e965 72ae 1fb1 0240 786e 2a22 ba5f cd3f
00000200: 828a 85a9 bead 9c3f 6d03 5f1f 8014 f4bf
00000210: a6dd 3062 0690 3ac0 a014 6d04 8222 4ac0
00000220: d8f8 a3dd 27f7 5340 1cde 0261 0d88 5340
00000230: 62c4 1f49 32c4 5340 0740 b166 0f39 5440
00000240: 9f6f 1338 edc8 5440 a149 a9a6 fdb4 3940
00000250: 2aba a771 b3ad bebf 4037 3282 d1d4 f33f
00000260: d16a 648c be70 d5bf b9cf 1f1b 8a8a 12c0
00000270: ccc6 0238 84c3 06c0 8f6e 7760 cbd8 0b40
00000280: 3af9 1945 358a f33f 3e2e 7fa7 8302 f43f
00000290: 106b e652 85ba eb3f 6cfa 994e 56c3 c7bf
000002a0: e9aa 0d4c 1770 ccbf 686d 8926 d8b0 0e40
000002b0: 7c5e 0142 f0b5 23c0 ad59 4a21 1c0f c73f
000002c0: 0ba9 8bec 356a f8bf 365e aa22 8057 dabf
000002d0: f82b 5a06 0073 e03f 9de5 fcd1 b414 2cc0
000002e0: 4a07 8f89 ed55 2840 ed4f 8851 1bad 2540
000002f0: 49a9 b5ac f770 f1bf 7369 fcd5 8fc4 0240
00000300: 7ad1 22c2 3b03 1740 9c30 387a 991e 0740
00000310: 18c4 2bb5 ab2a f4bf b359 2f59 914e 10c0
00000320: 75b8 1553 f4d9 17c0 b7de dbde 88a1 ddbf
00000330: 23e1 8a6c e1eb 06c0 5ea7 f20a 1513 20c0
00000340: a0db 68c8 0913 05c0 5c5f 01ce 9a0f 0ac0
00000350: 67cd 6b13 c853 2940 d0bd fb0a 1a65 27c0
00000360: 3815 413c 4fa0 2cc0 6a48 0c25 2b2c 26c0
00000370: 0d15 86ed 66a7 1a40 7c8a af21 0153 28c0
00000380: 0394 3ac0 72c3 11c0 5b06 464d 865b 2cc0
00000390: 5430 3bf8 fbe2 23c0 6f80 8362 276d 0740
000003a0: 68db 8560 e05c 15c0 9a5d 93be 3486 0fc0
000003b0: 122d 90dc db81 11c0 780b 8e8c dcff 05c0
000003c0: 0b1d d7cd 3cd7 e1bf 7885 8515 5a13 c2bf
000003d0: ac4f 8409 b3e4 11c0 b6c7 2b7a b700 f4bf
000003e0: a826 bd40 0fe3 1bc0 228a 5e11 9161 25c0
000003f0: ac52 5b3c 475a 1bc0 228f 6431 f2ab f83f
00000400: 82a2 71aa cbb6 2bc0 00de fbea aafd 85bf
00000410: 1e87 53f5 a193 f2bf 6e5b 69a3 d6d1 2040
00000420: 7c2d 4e81 a143 3140 ae7d 438b 57db 38c0
00000430: d720 7a68 2cb3 36c0 dd0c a06d 69ad 39c0
00000440: dea1 fd9d c41b 3bc0 ede9 0e78 cf8b 39c0
00000450: 23fe 325f 6cb5 21c0 394e 1b3a 4f6c f93f
00000460: 365c 7db7 8e53 06c0 9b5b 54dd 9f27 f53f
00000470: 80c2 097e fe1e 0140 a792 00e6 3a01 0740
00000480: 05af 16b6 4b33 f53f 3263 c9bf a308 fc3f
00000490: a02d 7b3e 7ec3 e03f b76c b9fe daee 0340
000004a0: 524a 5652 8e04 dbbf 57e9 8072 80b2 fdbf
000004b0: f11e 6d39 4a84 1140 6258 46ba e138 2d40
000004c0: 1582 8553 3761 e5bf 5822 4edd 5196 20c0
000004d0: 8d8c 88fa 4492 00c0 93c5 62b8 7208 0040
000004e0: fb99 bb84 6e86 0040 c16f 2046 621c 01c0
000004f0: 6d17 33b1 d80b 0bc0 6946 accb 11aa e2bf
00000500: e231 861f aabd fb3f 8f44 29ba da0c 10c0
00000510: 79f2 eb2b 53a8 e03f 746e d548 7918 fcbf
00000520: 31aa 21fd b395 eabf aca8 4629 8730 d0bf
00000530: 9332 20f8 e0ed f73f fc77 6b7f 752b ef3f
00000540: a146 fd51 4567 13c0 505d aef1 0951 f5bf
00000550: 40f0 d698 e27c febf b54c 5ded 38d5 0ec0
00000560: fa6a 090e 8f72 1a40 a320 3a10 f995 1c40
00000570: 309e 0a92 5d97 0e40 4f10 2c10 30f7 0dc0
00000580: 5051 10a3 c52d f5bf de51 47d0 6d36 1e40
00000590: 083f 9147 a0c7 1a40 72eb 44d0 0b2f 1140
000005a0: 6561 2ae2 5548 d93f b689 e433 af07 0740
000005b0: 857c 8774 8a24 f2bf beb6 6202 3dc7 e3bf
000005c0: d671 e092 9e2d febf 138f 9590 c1b8 ea3f
000005d0: f42d d057 c71f 0040 5bec 11e5 f2b1 1f40
000005e0: 9a37 7eb6 af8a 09c0 3c27 3a9a dcf9 bc3f
000005f0: a2f3 b5e6 9c73 20c0 a4a2 8eb3 e965 1940
00000600: 2e35 4f10 52cd eb3f b60c 8f7f bade 0f40
00000610: a020 f801 f9bb 8a3f 49f8 022f 1032 f53f
00000620: a463 78db 654b 1640 45b1 e282 dae5 2840
00000630: f769 5024 2341 33c0 d8cb 448d ffa7 32c0
00000640: 0132 93a7 6b84 34c0 7aae 3c26 c4db 33c0
00000650: 8d75 89e1 d726 34c0 06fd 4c2a 4f80 1bc0
00000660: f53c 53ef e4cc f7bf c916 2251 f2f5 02c0
00000670: 0481 b922 0795 d03f 1411 35ca 0fd8 f43f
00000680: 9ddb 8245 afed fa3f 944c 907a 0c71 e43f
00000690: cdb1 0786 3fa1 f1bf 66ac ef69 7232 f0bf
000006a0: a863 68d7 9a2e d3bf 640d d2a7 5042 b7bf
000006b0: 8164 f2dc 5500 f8bf a70b 507a 2564 e0bf
000006c0: 4df9 ea53 0c02 0240 506a 57e2 e352 a13f
000006d0: 7c7d a570 7ddc f0bf 3046 9c53 087e 0040
000006e0: 78b3 2c46 929e bf3f b1f7 e9ae f82d fd3f
000006f0: c112 2741 e40e 04c0 c4a0 8954 526f 0fc0
00000700: d832 6a3f c7c5 e43f fe20 4e3c 9b84 f33f
00000710: 6cf3 2ef2 bea8 2040 a34e e847 a46e a9bf
00000720: 58e2 9543 5162 e73f 1630 7e05 0ae1 c6bf
00000730: c401 c69e 743a df3f 6203 3872 cedd e6bf
00000740: a7f9 3e88 03ef f53f d918 381c 9a5c fbbf
00000750: a61a de6c f3e6 c6bf 28c7 f5d8 d202 c53f
00000760: 5ea5 6646 0b43 d5bf f418 45f9 2f2d fabf
00000770: 5c68 404e e421 b13f 31b6 4619 4012 0e40
00000780: bb09 5646 4e1b f9bf d48d 73b3 b9ec f13f
00000790: 1bac 8144 e2a1 ec3f bf4f 3876 d0c3 0940
000007a0: b716 c2d5 11e4 0640 7b01 90d6 769a f5bf
000007b0: 7499 87c7 d500 0540 b7c1 72b0 67e9 fc3f
000007c0: 4e13 a37f 223d e13f 6716 8ab7 5a72 e7bf
000007d0: 0b57 d851 9074 e33f 862a af9f 05a4 e8bf
000007e0: 2e61 afab d160 eb3f cafe 9561 a9ef e23f
000007f0: f1f0 7b0c 5502 00c0 213d e563 13ac f1bf
-0.8438344473864653 -6.836492380881272 -13.412253453395925 20.474694460248667 21.08545022454653 21.014560212279342 20.76147213481789 20.586724938570462
6.575761072514256 0.1694833836439364 -0.936707997642164 0.4748241034775395 -1.567186057645156 -0.41386055034569186 2.4864046047947523 0.23524856332443556
0.8491283475794903 1.392643924449953 -0.6366809576721285 -0.6381077441534457 1.503297312797 3.711157291900775 -0.26697684153395174 -1.096479742427335
-0.44509920653976703 -0.5747027879312446 0.7168296855799573 -1.6829180750408785 -1.645104175769823 -4.186681299209302 1.7786674520716343 1.625019718734756
0.7152804655032605 0.9557462671915077 -0.8895151234430229 -2.4390671709048806 -0.7299058246621604 -0.32914621023106666 -4.902769608058518 -0.8354028901393793
-1.423086971411902 0.18178427335616332 0.39968326225339046 -1.0608059466406627 -0.7325081877977325 7.419795230224184 -9.670351494883674 -6.2435645651999385
-7.411552637220006 -8.097489528921537 0.17222684872708005 -0.3593008982463655 0.13076760393233283 -0.9413170946386382 -1.0012620324974482 -0.4496952974004451
-0.5970476844718988 -0.9032978511125863 -1.679677574736826 -1.571778391869233 -3.2399461979644864 1.4290593088958845 2.3364862087880636 0.2294838587593977
0.02800653371503837 -1.255004999679126 -26.562597405367022 -52.269592812788005 79.8618082143106 78.1258165863041 79.06556919195421 80.89156501111584
83.13947870157288 25.70699540741919 -0.11983796620163703 1.239457615450604 -0.3350063677805056 -4.635292457405677 -2.845467031082853 3.480856660504123
1.221242208411765 1.2506138365596509 0.8665186518804564 -0.1856487163349415 -0.22217074597877876 3.836349774426413 -9.85534864680016 0.1801486170340473
-1.5259303321896052 -0.41159060845663775 0.5140380977694567 -14.040442049142081 12.167827891072779 10.838099048509287 -1.090079950949603 2.345977470174313
5.753157647490633 2.889941172446994 -1.2604176594725285 -4.076726335063017 -5.962846086693493 -0.4629842926365017 -2.865176055897011 -8.037269918556998
-2.6342960030555815 -3.257619485299001 12.663635832700221 -11.697464316587599 -14.313104517883957 -11.086266668080686 6.66347857600091 -12.162118008306827
-4.440867427420929 -14.178759016797974 -9.943328625893777 2.928297776830781 -5.340699680490481 -3.940530289528124 -4.3768152678487855 -2.74993238266455
-0.5575241108244041 -0.14121557284219555 -4.473339222622524 -1.2501749775224034 -6.971737872643338 -10.690559904852368 -6.838162367891226 1.5419790200621226
-13.857022596713481 -0.01073773889173335 -1.161043127351554 8.409840685473423 17.264183122240397 -24.85680456540802 -22.699896364037013 -25.677389957022445
-27.10846888963885 -25.546134475365694 -8.854342436766336 1.5889427442351816 -2.7907995543605706 1.3221739431080326 2.140133843109936 2.875600621120913
1.3250233757816556 1.7521092883745948 0.5238639087996724 2.491628637345993 -0.4221530727456059 -1.856079528121503 4.379189393315515 14.61109716519076
-0.6681172019271481 -8.293593326366292 -2.07142062882628 2.0041250615256074 2.06564048478617 -2.138859317650685 -3.3807844012944117 -0.5832604387271206
1.7338048201955805 -4.012553128021991 0.5205474717946138 -1.7559750409190231 -0.8307743019079848 -0.25296191244945976 1.4955758755124051 0.9740550507228813
-4.850850373347982 -1.332284874026147 -1.9054895372673997 -3.854112486276416 6.611873835873434 7.146457913921185 3.823908940266641 -3.745697141976087
-1.3236748094251034 7.55315328059484 6.694947355499387 4.295943502623105 0.39504000746230467 2.878752141391682 -1.1339211036609254 -0.6180710836976784
-1.8861375558254756 0.8350532363806188 2.0155169353872626 7.923778132647466 -3.1927179581898146 0.11318758740722229 -8.225806436262989 6.349524312573212
0.8688135450881072 3.9837541547327318 0.013053841946217226 1.3247224651709237 5.5736307422857045 12.448932733700198 -19.254442472107225 -18.65624316148373
-20.517267678676948 -19.858461751761276 -20.151731582698222 -6.875301991414068 -1.487523016799796 -2.3700910891082896 0.25909593955113075 1.3027494333956087
1.6830284800796342 0.638799895651021 -1.1018672214078038 -1.012316144765259 -0.2997195342628012 -0.09085563752346598 -1.5000818854080367 -0.5122249020499695
2.251000075920422 0.03383552682835911 -1.0538305664302632 2.061539319235429 0.12351335728881263 1.8237234909606566 -2.5072712984132015 -3.9293562511921625
0.6491428602763234 1.2198746066733857 8.329581802588756 -0.049672254350438004 0.7307516403225902 -0.17874264972886128 0.48794284348698747 -0.7145759802661866
1.3708529779538396 -1.7101079084691746 -0.17892306152153487 0.16414867013696122 -0.3322170436391242 -1.636032079420656 0.06692339811743991 3.758911321134996
-1.5691664454940184 1.1202942857570308 0.8947612131136141 3.220612453073016 2.8613621425491504 -1.3502109891270198 2.6254077518707906 1.8069836514006121
0.5387127392683426 -0.7327092728380195 0.6079789732491191 -0.7700222128708709 0.8555687287544396 0.591755571935175 -2.0011387801479192 -1.1045106794516146

arr_1 f8 [57]
00000000: c6f0 eb23 4e2f 5c40 e019 5507 24f1 6040
00000010: 329a f362 01d8 5240 ba5a 9bcd 70f1 5640
00000020: a595 5cf8 4489 5240 a45f a645 a8e3 5f40
00000030: dd1b 1dad 9681 6540 5c9e 86d3 b409 4040
00000040: 7c84 7114 1ed1 4340 4434 dcef f64a 3040
00000050: 4771 4f56 e15b 4dc0 3bd6 7e61 626d 3d40
00000060: c2de ada6 5eb7 5440 9a96 6220 0bbd 5440
00000070: eccc 5a3c 2651 4240 df45 b7c4 c016 4640
00000080: 6044 26d7 3a8a 3fc0 6af8 7bd6 252b 4f40
00000090: 65b0 c98c d769 4940 3583 df77 3706 3a40
000000a0: 2c9e e778 94fe 5040 9753 b121 ee1e 4c40
000000b0: 1cbf c35c 19bf 5040 9eee ac22 a227 4740
000000c0: c6a9 18d9 b0f2 3740 e2d2 de9e 2c70 5940
000000d0: 9e7e 3e6f 9abf 4140 a883 aad4 737a 4f40
000000e0: 9da1 fe4c e14c 5240 675f a0a6 bf4e 5240
000000f0: 6ead 6004 80f7 5140 fa0b a4f1 a8f5 5040
00000100: ed30 d2d6 ea3a 4d40 0bdd dfff 44e1 5140
00000110: f073 02c6 a412 5840 3286 cfee 29b6 5240
00000120: ecb3 93b9 f5a6 35c0 a6a8 f29d 95f6 4a40
00000130: 8a7b 0b04 372d 4140 c443 7f16 2200 5640
00000140: 07e3 6bf7 b4d6 4640 a82b f99b b97a 6240
00000150: c1bf df33 d781 5540 e3e5 068d ca68 5040
00000160: 8d57 418d 71f1 3340 c124 6be8 edd7 4f40
00000170: f1f3 f5fe 7ac5 6440 ba5a 9bcd 70f1 5640
00000180: a45f a645 a8e3 5f40 6af8 7bd6 252b 4f40
00000190: 54b0 c98c d769 4940 2c9e e778 94fe 5040
000001a0: 9eee ac22 a227 4740 d6a9 18d9 b0f2 3740
000001b0: dcd2 de9e 2c70 5940 a07e 3e6f 9abf 4140
000001c0: 7655 1a1e f97d 2540
112.7391443065745 135.5356480276232 75.37508462704935 91.77250995799378 74.1448346046587 127.55714551207944 172.0496430939228 32.07583087990926
39.633730464390254 16.292830458889753 -58.71781424407032 29.42728242251017 82.86515204410082 82.95380410793078 36.63397936280839 44.17775782536386
-31.539960333674003 62.33709221890679 50.82689056251619 26.02428387839173 67.97781202906543 56.2416422000744 66.98592299571868 46.30963548129988
23.94801098682526 101.7527234245313 35.496900468363705 62.95665987325566 73.20125126711214 73.23044744168656 71.86718854371222 67.83843651790804
58.46029172194708 71.51983639585175 96.29130697478809 74.84630937830005 -21.65218696456934 53.926440947995886 34.353241448981024 88.00208055904574
45.67739765899574 147.8351573816883 86.02875992632381 65.63736272500641 19.943138912632595 63.68694787246341 166.17126415288615 91.77250995799378
127.55714551207944 62.33709221890679 50.82689056251607 67.97781202906543 46.30963548129988 23.948010986825317 101.75272342453121 35.49690046836372
10.746041241373614
